Model: "functional"
┏━━━━━━━━━━━━━━━━━━━━━┳━━━━━━━━━━━━━━━━━━━┳━━━━━━━━━━━━┳━━━━━━━━━━━━━━━━━━━┓
┃ Layer (type)        ┃ Output Shape      ┃    Param # ┃ Connected to      ┃
┡━━━━━━━━━━━━━━━━━━━━━╇━━━━━━━━━━━━━━━━━━━╇━━━━━━━━━━━━╇━━━━━━━━━━━━━━━━━━━┩
│ input_layer         │ (None, 64, 64,    │          0 │ -                 │
│ (InputLayer)        │ 256)              │            │                   │
├─────────────────────┼───────────────────┼────────────┼───────────────────┤
│ global_average_poo… │ (None, 256)       │          0 │ input_layer[0][0] │
│ (GlobalAveragePool… │                   │            │                   │
├─────────────────────┼───────────────────┼────────────┼───────────────────┤
│ global_max_pooling… │ (None, 256)       │          0 │ input_layer[0][0] │
│ (GlobalMaxPooling2… │                   │            │                   │
├─────────────────────┼───────────────────┼────────────┼───────────────────┤
│ reshape (Reshape)   │ (None, 1, 1, 256) │          0 │ global_average_p… │
├─────────────────────┼───────────────────┼────────────┼───────────────────┤
│ reshape_1 (Reshape) │ (None, 1, 1, 256) │          0 │ global_max_pooli… │
├─────────────────────┼───────────────────┼────────────┼───────────────────┤
│ dense (Dense)       │ (None, 1, 1, 32)  │      8,224 │ reshape[0][0],    │
│                     │                   │            │ reshape_1[0][0]   │
├─────────────────────┼───────────────────┼────────────┼───────────────────┤
│ dense_1 (Dense)     │ (None, 1, 1, 256) │      8,448 │ dense[0][0],      │
│                     │                   │            │ dense[1][0]       │
├─────────────────────┼───────────────────┼────────────┼───────────────────┤
│ add (Add)           │ (None, 1, 1, 256) │          0 │ dense_1[0][0],    │
│                     │                   │            │ dense_1[1][0]     │
├─────────────────────┼───────────────────┼────────────┼───────────────────┤
│ activation          │ (None, 1, 1, 256) │          0 │ add[0][0]         │
│ (Activation)        │                   │            │                   │
├─────────────────────┼───────────────────┼────────────┼───────────────────┤
│ multiply (Multiply) │ (None, 64, 64,    │          0 │ input_layer[0][0… │
│                     │ 256)              │            │ activation[0][0]  │
├─────────────────────┼───────────────────┼────────────┼───────────────────┤
…
│ (BatchNormalizatio… │ 64)               │            │                   │
├─────────────────────┼───────────────────┼────────────┼───────────────────┤
│ re_lu (ReLU)        │ (None, 112, 112,  │          0 │ batch_normalizat… │
│                     │ 64)               │            │                   │
├─────────────────────┼───────────────────┼────────────┼───────────────────┤
│ max_pooling2d       │ (None, 56, 56,    │          0 │ re_lu[0][0]       │
│ (MaxPooling2D)      │ 64)               │            │                   │
├─────────────────────┼───────────────────┼────────────┼───────────────────┤
│ global_average_poo… │ (None, 64)        │          0 │ max_pooling2d[0]… │
│ (GlobalAveragePool… │                   │            │                   │
├─────────────────────┼───────────────────┼────────────┼───────────────────┤
│ global_max_pooling… │ (None, 64)        │          0 │ max_pooling2d[0]… │
│ (GlobalMaxPooling2… │                   │            │                   │
├─────────────────────┼───────────────────┼────────────┼───────────────────┤
│ reshape_2 (Reshape) │ (None, 1, 1, 64)  │          0 │ global_average_p… │
├─────────────────────┼───────────────────┼────────────┼───────────────────┤
│ reshape_3 (Reshape) │ (None, 1, 1, 64)  │          0 │ global_max_pooli… │
├─────────────────────┼───────────────────┼────────────┼───────────────────┤
│ dense_2 (Dense)     │ (None, 1, 1, 8)   │        520 │ reshape_2[0][0],  │
│                     │                   │            │ reshape_3[0][0]   │
├─────────────────────┼───────────────────┼────────────┼───────────────────┤
│ dense_3 (Dense)     │ (None, 1, 1, 64)  │        576 │ dense_2[0][0],    │
│                     │                   │            │ dense_2[1][0]     │
├─────────────────────┼───────────────────┼────────────┼───────────────────┤
│ add_1 (Add)         │ (None, 1, 1, 64)  │          0 │ dense_3[0][0],    │
│                     │                   │            │ dense_3[1][0]     │
├─────────────────────┼───────────────────┼────────────┼───────────────────┤
│ activation_1        │ (None, 1, 1, 64)  │          0 │ add_1[0][0]       │
│ (Activation)        │                   │            │                   │
├─────────────────────┼───────────────────┼────────────┼───────────────────┤
│ multiply_3          │ (None, 56, 56,    │          0 │ max_pooling2d[0]… │
│ (Multiply)          │ 64)               │            │ activation_1[0][… │
├─────────────────────┼───────────────────┼────────────┼───────────────────┤
…
│ (BatchNormalizatio… │ 128)              │            │                   │
├─────────────────────┼───────────────────┼────────────┼───────────────────┤
│ add_6 (Add)         │ (None, 28, 28,    │          0 │ batch_normalizat… │
│                     │ 128)              │            │ re_lu_6[0][0]     │
├─────────────────────┼───────────────────┼────────────┼───────────────────┤
│ re_lu_8 (ReLU)      │ (None, 28, 28,    │          0 │ add_6[0][0]       │
│                     │ 128)              │            │                   │
├─────────────────────┼───────────────────┼────────────┼───────────────────┤
│ global_average_poo… │ (None, 128)       │          0 │ re_lu_8[0][0]     │
│ (GlobalAveragePool… │                   │            │                   │
├─────────────────────┼───────────────────┼────────────┼───────────────────┤
│ global_max_pooling… │ (None, 128)       │          0 │ re_lu_8[0][0]     │
│ (GlobalMaxPooling2… │                   │            │                   │
├─────────────────────┼───────────────────┼────────────┼───────────────────┤
│ reshape_6 (Reshape) │ (None, 1, 1, 128) │          0 │ global_average_p… │
├─────────────────────┼───────────────────┼────────────┼───────────────────┤
│ reshape_7 (Reshape) │ (None, 1, 1, 128) │          0 │ global_max_pooli… │
├─────────────────────┼───────────────────┼────────────┼───────────────────┤
│ dense_6 (Dense)     │ (None, 1, 1, 16)  │      2,064 │ reshape_6[0][0],  │
│                     │                   │            │ reshape_7[0][0]   │
├─────────────────────┼───────────────────┼────────────┼───────────────────┤
│ dense_7 (Dense)     │ (None, 1, 1, 128) │      2,176 │ dense_6[0][0],    │
│                     │                   │            │ dense_6[1][0]     │
├─────────────────────┼───────────────────┼────────────┼───────────────────┤
│ add_7 (Add)         │ (None, 1, 1, 128) │          0 │ dense_7[0][0],    │
│                     │                   │            │ dense_7[1][0]     │
├─────────────────────┼───────────────────┼────────────┼───────────────────┤
│ activation_3        │ (None, 1, 1, 128) │          0 │ add_7[0][0]       │
│ (Activation)        │                   │            │                   │
├─────────────────────┼───────────────────┼────────────┼───────────────────┤
│ multiply_9          │ (None, 28, 28,    │          0 │ re_lu_8[0][0],    │
│ (Multiply)          │ 128)              │            │ activation_3[0][… │
├─────────────────────┼───────────────────┼────────────┼───────────────────┤
…
│ (BatchNormalizatio… │ 256)              │            │                   │
├─────────────────────┼───────────────────┼────────────┼───────────────────┤
│ add_9 (Add)         │ (None, 14, 14,    │          0 │ batch_normalizat… │
│                     │ 256)              │            │ re_lu_10[0][0]    │
├─────────────────────┼───────────────────┼────────────┼───────────────────┤
│ re_lu_12 (ReLU)     │ (None, 14, 14,    │          0 │ add_9[0][0]       │
│                     │ 256)              │            │                   │
├─────────────────────┼───────────────────┼────────────┼───────────────────┤
│ global_average_poo… │ (None, 256)       │          0 │ re_lu_12[0][0]    │
│ (GlobalAveragePool… │                   │            │                   │
├─────────────────────┼───────────────────┼────────────┼───────────────────┤
│ global_max_pooling… │ (None, 256)       │          0 │ re_lu_12[0][0]    │
│ (GlobalMaxPooling2… │                   │            │                   │
├─────────────────────┼───────────────────┼────────────┼───────────────────┤
│ reshape_8 (Reshape) │ (None, 1, 1, 256) │          0 │ global_average_p… │
├─────────────────────┼───────────────────┼────────────┼───────────────────┤
│ reshape_9 (Reshape) │ (None, 1, 1, 256) │          0 │ global_max_pooli… │
├─────────────────────┼───────────────────┼────────────┼───────────────────┤
│ dense_8 (Dense)     │ (None, 1, 1, 32)  │      8,224 │ reshape_8[0][0],  │
│                     │                   │            │ reshape_9[0][0]   │
├─────────────────────┼───────────────────┼────────────┼───────────────────┤
│ dense_9 (Dense)     │ (None, 1, 1, 256) │      8,448 │ dense_8[0][0],    │
│                     │                   │            │ dense_8[1][0]     │
├─────────────────────┼───────────────────┼────────────┼───────────────────┤
│ add_10 (Add)        │ (None, 1, 1, 256) │          0 │ dense_9[0][0],    │
│                     │                   │            │ dense_9[1][0]     │
├─────────────────────┼───────────────────┼────────────┼───────────────────┤
│ activation_4        │ (None, 1, 1, 256) │          0 │ add_10[0][0]      │
│ (Activation)        │                   │            │                   │
├─────────────────────┼───────────────────┼────────────┼───────────────────┤
│ multiply_12         │ (None, 14, 14,    │          0 │ re_lu_12[0][0],   │
│ (Multiply)          │ 256)              │            │ activation_4[0][… │
├─────────────────────┼───────────────────┼────────────┼───────────────────┤
│ spatial_attention_4 │ (None, 14, 14,    │         98 │ multiply_12[0][0] │
│ (SpatialAttention)  │ 256)              │            │                   │
├─────────────────────┼───────────────────┼────────────┼───────────────────┤
│ conv2d_21 (Conv2D)  │ (None, 7, 7, 512) │  1,180,160 │ spatial_attentio… │
├─────────────────────┼───────────────────┼────────────┼───────────────────┤
│ batch_normalizatio… │ (None, 7, 7, 512) │      2,048 │ conv2d_21[0][0]   │
│ (BatchNormalizatio… │                   │            │                   │
├─────────────────────┼───────────────────┼────────────┼───────────────────┤
│ re_lu_13 (ReLU)     │ (None, 7, 7, 512) │          0 │ batch_normalizat… │
├─────────────────────┼───────────────────┼────────────┼───────────────────┤
│ conv2d_22 (Conv2D)  │ (None, 7, 7, 512) │  2,359,808 │ re_lu_13[0][0]    │
├─────────────────────┼───────────────────┼────────────┼───────────────────┤
│ conv2d_23 (Conv2D)  │ (None, 7, 7, 512) │    131,584 │ spatial_attentio… │
├─────────────────────┼───────────────────┼────────────┼───────────────────┤
│ batch_normalizatio… │ (None, 7, 7, 512) │      2,048 │ conv2d_22[0][0]   │
│ (BatchNormalizatio… │                   │            │                   │
├─────────────────────┼───────────────────┼────────────┼───────────────────┤
│ batch_normalizatio… │ (None, 7, 7, 512) │      2,048 │ conv2d_23[0][0]   │
│ (BatchNormalizatio… │                   │            │                   │
├─────────────────────┼───────────────────┼────────────┼───────────────────┤
│ add_11 (Add)        │ (None, 7, 7, 512) │          0 │ batch_normalizat… │
│                     │                   │            │ batch_normalizat… │
├─────────────────────┼───────────────────┼────────────┼───────────────────┤
│ re_lu_14 (ReLU)     │ (None, 7, 7, 512) │          0 │ add_11[0][0]      │
├─────────────────────┼───────────────────┼────────────┼───────────────────┤
│ conv2d_24 (Conv2D)  │ (None, 7, 7, 512) │  2,359,808 │ re_lu_14[0][0]    │
├─────────────────────┼───────────────────┼────────────┼───────────────────┤
│ batch_normalizatio… │ (None, 7, 7, 512) │      2,048 │ conv2d_24[0][0]   │
│ (BatchNormalizatio… │                   │            │                   │
├─────────────────────┼───────────────────┼────────────┼───────────────────┤
│ re_lu_15 (ReLU)     │ (None, 7, 7, 512) │          0 │ batch_normalizat… │
├─────────────────────┼───────────────────┼────────────┼───────────────────┤
│ conv2d_25 (Conv2D)  │ (None, 7, 7, 512) │  2,359,808 │ re_lu_15[0][0]    │
├─────────────────────┼───────────────────┼────────────┼───────────────────┤
│ batch_normalizatio… │ (None, 7, 7, 512) │      2,048 │ conv2d_25[0][0]   │
│ (BatchNormalizatio… │                   │            │                   │
├─────────────────────┼───────────────────┼────────────┼───────────────────┤
│ add_12 (Add)        │ (None, 7, 7, 512) │          0 │ batch_normalizat… │
│                     │                   │            │ re_lu_14[0][0]    │
├─────────────────────┼───────────────────┼────────────┼───────────────────┤
│ re_lu_16 (ReLU)     │ (None, 7, 7, 512) │          0 │ add_12[0][0]      │
├─────────────────────┼───────────────────┼────────────┼───────────────────┤
│ global_average_poo… │ (None, 512)       │          0 │ re_lu_16[0][0]    │
│ (GlobalAveragePool… │                   │            │                   │
├─────────────────────┼───────────────────┼────────────┼───────────────────┤
│ dense_10 (Dense)    │ (None, 1)         │        513 │ global_average_p… │
└─────────────────────┴───────────────────┴────────────┴───────────────────┘
 Total params: 11,219,337 (42.80 MB)
 Trainable params: 11,209,609 (42.76 MB)
 Non-trainable params: 9,728 (38.00 KB)
